model.pth (torch, 85655 bytes, 6 tensors)

weight f4 [16, 1, 3, 3]
0	0x3e8f111c	0.2794274
1	0xbfcfdb61	-1.6238824
2	0xbfca8690	-1.5822315
3	0xbf2315f0	-0.6370535
4	0xbf8eaa7b	-1.1145777
5	0xc01370bd	-2.303756
6	0xbf6d92a0	-0.92801857
7	0x3ea6cae5	0.3257667
8	0xc0cbd152	-6.369302
9	0xbf3e04fc	-0.74226356
10	0xbe0179b3	-0.12644081
11	0x3eb49f3e	0.35277742
12	0xbe7aa894	-0.2447837
13	0x3f011800	0.50427246
14	0xbe0af604	-0.1357041
15	0x3eadb8fc	0.33930194
16	0xbede0082	-0.43359762
17	0xbfa7c1e8	-1.310605
18	0x3f270517	0.6524214
19	0x3eb7c49d	0.35892192
20	0xbee67cc2	-0.45017058
21	0xbf7eb8da	-0.9950081
22	0xc0000470	-2.0002708
23	0xbe5a389d	-0.21310659
24	0xbe989d61	-0.2980757
25	0x3eaedec5	0.34154335
26	0x3f16b0f9	0.5886379
27	0xbe544e9b	-0.2073311
28	0x3dc30a1c	0.095234126
29	0x3f51ba3f	0.81924814
30	0xc01f9a5d	-2.4937966
31	0xbfb68933	-1.426062
32	0xbdf4dd1b	-0.11956235
33	0x3f56e854	0.83948255
34	0xbef3d198	-0.47620845
35	0xbf8edc1f	-1.1160926
36	0xc00ce130	-2.2012444
37	0xbfc25518	-1.5182219
38	0x3d979c13	0.07402816
39	0xbf6104c8	-0.8789792
40	0x3ecbe85c	0.39825714
41	0x3f13b5f7	0.5769953
42	0xbfacb5e9	-1.3493015
43	0x3d7113f6	0.058856927
44	0x3edf0d11	0.43564656
45	0x3e358e2c	0.17730016
46	0xbd856e60	-0.06515193
47	0xbebdc62d	-0.3706526
48	0x3da5c6ec	0.08094582
49	0xbf020085	-0.5078204
50	0xbe914ecf	-0.2838044
51	0x3def3d1f	0.1168158
52	0xbccd5675	-0.02506564
53	0x3e48dd7b	0.19615738
54	0xbfbbb168	-1.4663515
55	0xbf0003c5	-0.5000575
56	0xbf565e4f	-0.83737653
57	0xbe96c8da	-0.29450113
58	0x3efd5479	0.4947851
59	0xbf52bc86	-0.82318914
60	0xc01dd551	-2.4661448
61	0xbedafef8	-0.4277265
62	0x3eb2e5e4	0.34941018
63	0x3d5c1148	0.05372742
64	0xbe7cfecf	-0.24706577
65	0xbe488091	-0.19580294
66	0x3e5275b4	0.20552713
67	0xbf203128	-0.62575006
68	0xbed9e2c5	-0.42555824
69	0x3d8c6e18	0.06856936
70	0x3e3e3e02	0.18578342
71	0x3d1b1d57	0.037869778
72	0xbf6db91b	-0.92860574
73	0xbf43b3bc	-0.7644613
74	0x3e0fa92c	0.14029378
75	0xbf10a52b	-0.56502026
76	0x3f97e764	1.186749
77	0x3f014b6d	0.50505716
78	0x3e7e5387	0.2483655
79	0xbd258b33	-0.040415954
80	0xbf4f413b	-0.8095891
81	0x3edb3bcb	0.42819056
82	0x3e3cae6a	0.18425909
83	0x3edddd03	0.4333268
84	0xbdc90926	-0.09816198
85	0x3e9360d0	0.287848
86	0xbf0ca2af	-0.54935735
87	0xbf697fe9	-0.912108
88	0xbf8ea54b	-1.1144193
89	0xbf2b18b7	-0.66834587
90	0xbe90f787	-0.28313848
91	0xbf836d8f	-1.026781
92	0x3f15a8cc	0.5846069
93	0xbf308de9	-0.6896654
94	0xbe899c74	-0.26877177
95	0x3f85c9a6	1.0452163
96	0xbf07b6e3	-0.5301344
97	0xc00fd5d1	-2.2474253
98	0xbef6b54e	-0.481852
99	0x3edc65ce	0.4304642
100	0x3f2aa056	0.66650903
101	0x3f11bbee	0.5692738
102	0xbdf5a27a	-0.119938806
103	0xbe3f25ff	-0.18666838
104	0x3eef9d66	0.46799773
105	0xbfa211c4	-1.2661672
106	0xbf1ffe95	-0.62497836
107	0x3ee3e8da	0.4451359
108	0xbed27c2f	-0.4111037
109	0xbfab2185	-1.3369604
110	0xbeb5bd10	-0.35495806
111	0x3de18f29	0.11013634
112	0x3e2cd708	0.16878903
113	0xbf406a17	-0.7516188
114	0x3e87e710	0.26543474
115	0x3f25a3c1	0.64702994
116	0xbb9734f2	-0.004614466
117	0xbe5f6350	-0.21815228
118	0xbf0a5ce1	-0.5404797
119	0xbe7397de	-0.23788401
120	0xbe08de34	-0.13366014
121	0xbe6c2d0d	-0.2306406
122	0x3e80616f	0.25074336
123	0xbea0e8f5	-0.31427732
124	0x3e0ffe23	0.14061789
125	0xbea4e983	-0.32209405
126	0x3edb0bbb	0.42782387
127	0x3d6b1ece	0.057402425
128	0xbf2ca0cf	-0.67432874
129	0x3f1eae98	0.6198516
130	0xbf22f3a3	-0.6365301
131	0xbf629286	-0.8850483
132	0x3f24fe78	0.6445079
133	0x3e8aea48	0.27131867
134	0xbdd7ea86	-0.10542779
135	0xbe848e91	-0.2589002
136	0x3e5e2885	0.21695144
137	0x3da391da	0.07986803
138	0x3e0b481c	0.13601726
139	0xbe8320a2	-0.25610834
140	0xbe3a98fb	-0.1822242
141	0xbc76af6a	-0.01505647
142	0xbf3aefac	-0.7302196
143	0xbe2d21ca	-0.16907421

bias f4 [16]
0	0x3e30d5fb	0.17269127
1	0xbf640980	-0.89076996
2	0xbe8ebe7a	-0.27879697
3	0xbd134920	-0.03595841
4	0xbda344ce	-0.07972108
5	0xbf1959b5	-0.5990251
6	0x3e6ddc23	0.23228507
7	0xbf1b1532	-0.60579216
8	0xbeea26cf	-0.45732734
9	0xbd8a0dcb	-0.06740912
10	0xbe16c938	-0.14725196
11	0xbf6fafa5	-0.9362739
12	0xbd949907	-0.0725575
13	0xbe8f0b2c	-0.2793821
14	0xbf39c972	-0.72573006
15	0xbed0a078	-0.40747428

weight f4 [32, 16, 3, 3]
0	0xbfc584b2	-1.543112
1	0xbf2962c7	-0.6616635
2	0xbf6f121c	-0.9338701
3	0xbfa1105a	-1.2583115
4	0xbfa6c4e6	-1.3028839
5	0xbfe7a02d	-1.8095757
6	0xbf571628	-0.8401818
7	0xbc043137	-0.008068374
8	0xbfb7b2c5	-1.4351431
9	0xbe3c2809	-0.18374647
10	0xbf245cbf	-0.6420402
11	0xbf2143c9	-0.62994057
12	0xbe2a599e	-0.16635749
13	0x3e96b152	0.2943216
14	0xbe125c43	-0.14293008
15	0xbdb970c1	-0.09054709
16	0x3e55d521	0.20882083
17	0xbe28f71d	-0.16500516
18	0xbfa471f1	-1.2847272
19	0xbe53e4cf	-0.20692752
20	0xbf8dd1ca	-1.1079648
21	0xbfc2293f	-1.5168837
22	0xbf37b96a	-0.71767294
23	0xbf36957b	-0.7132184
24	0xbeea9276	-0.45814866
25	0xbfcd986b	-1.6062139
26	0xbe1c7178	-0.1527766
27	0xbf49fc9a	-0.78901064
28	0xbe801aab	-0.25020346
29	0x3d9d4a8d	0.07680235
30	0xbf814a4c	-1.0100799
31	0xbe9201e0	-0.28517056
32	0xbe36611f	-0.17810486
33	0xbf6b54e7	-0.91926426
34	0x3e91457c	0.28373325
35	0x3f4d9095	0.8029874
36	0x3d8ca1f2	0.06866826
37	0xbfa704d2	-1.3048346
38	0xbedf6efc	-0.43639362
39	0xbeedcdb3	-0.46446
40	0xbf7ffd21	-0.9999562
41	0x3f69a629	0.91269165
42	0xbfae7520	-1.3629494
43	0xbe6a113d	-0.22858138
44	0x3cddbec5	0.027068505
45	0xbd3d081f	-0.046150323
46	0x3c356753	0.011071998
47	0xbe9de787	-0.30840704
48	0xbdd4ba2f	-0.10387074
49	0xbd2e0894	-0.04248865
50	0xbdd6c1cf	-0.10486185
51	0xbdb9423b	-0.090458356
52	0xbdde55c8	-0.10856205
53	0xbdd5b8d6	-0.10435645
54	0xbfecc0ef	-1.8496379
55	0xbf5026e3	-0.81309336
56	0xbf6bd6b9	-0.92124516
57	0xbfa5289c	-1.2903018
58	0xbfd010e0	-1.625515
59	0xbfaf7b58	-1.3709517
60	0xbfbe1ae6	-1.4851959
61	0xbea1702f	-0.31530902
62	0xbfa49aa1	-1.2859689
63	0xbd025b76	-0.031825505
64	0xbe9a1d1f	-0.30100343
65	0xbf032320	-0.5122547
66	0xbe2c7c11	-0.16844203
67	0xbe61bedf	-0.22045468
68	0xbeacb90c	-0.3373493
69	0xbe119be1	-0.1421962
70	0x3cfa1534	0.030527689
71	0xbd0f45dd	-0.034978736
72	0x3f84bf83	1.0370945
73	0xbf8ac48b	-1.084123
74	0xbf3470dc	-0.7048471
75	0xbea62409	-0.32449368
76	0xbecc7272	-0.39931065
77	0x3ef443d8	0.4770801
78	0xbc2fff08	-0.0107419565
79	0xbdea3998	-0.114367664
80	0xbe9aeb91	-0.30257848
81	0xbf61be91	-0.88181406
82	0xbf5b9306	-0.85771215
83	0xbd25ef86	-0.04051163
84	0xbf8646ff	-1.0490416
85	0xbeca09d5	-0.39460626
86	0x3cf2baea	0.029630143
87	0xbfd77d75	-1.6835161
88	0xbf3c3ffa	-0.7353512
89	0xbdacd854	-0.08439699
90	0xbf97abb8	-1.1849279
91	0xbfaca70d	-1.348848
92	0xbf3b35a5	-0.7312873
93	0xbfd03f27	-1.6269273
94	0x3e97d98d	0.29658166
95	0x3e72983e	0.23690888
96	0xbf6e0784	-0.9298022
97	0x3f3e44b8	0.74323606
98	0x3d8c579a	0.06852646
99	0x3ea38c7e	0.31943125
100	0xbf646854	-0.8922169
101	0xbf746ad0	-0.9547548
102	0xbf4397b9	-0.76403385
103	0x3f265d0e	0.6498574
104	0x3f376e95	0.7165311
105	0xbf1a4632	-0.6026336
106	0x3f065d14	0.52485776
107	0x3f8672f5	1.0503832
108	0x3eb70733	0.3574768
109	0xbbf59986	-0.007495108
110	0xbf309e05	-0.6899112
111	0xbf6eb384	-0.9324267
112	0x3e85b857	0.26117203
113	0x3f3c19f5	0.7347711
114	0xbf97946c	-1.184217
115	0xbf520986	-0.8204578
116	0x3f4ad921	0.7923756
117	0xbdd2d83c	-0.1029515
118	0xbe2675c9	-0.16255869
119	0xbc6157ba	-0.013753826
120	0xbe613ebd	-0.21996589
121	0x3d7e6920	0.062111974
122	0xbe1959fc	-0.14975733
123	0xbe69d69f	-0.22835778
124	0xbdb66016	-0.08905046
125	0xbe890533	-0.2676178
126	0xbf3d3b9d	-0.7391909
127	0xbe0c9106	-0.13727197
128	0xbd3450a7	-0.04402223
129	0xbe6dec34	-0.23234636
130	0xbf9f8094	-1.2461114
131	0x3e29c20a	0.16577926
132	0x4002fec3	2.0467994
133	0x3f10e23c	0.56595206
134	0x3f4e9c99	0.807077
135	0xbe05d2f9	-0.13068761
136	0xbd7950c3	-0.060868036
137	0xbe2c382d	-0.16818304
138	0xbe081202	-0.1328812
139	0xbe36a28e	-0.17835447
140	0xbdf8d69a	-0.12150307
141	0xbe2ba8fe	-0.16763684
142	0xbe4126e3	-0.1886249
143	0xbe577696	-0.2104133
144	0x3de043aa	0.10950406
145	0xbe5cd9dd	-0.21567483
146	0xbf909ab6	-1.1297214
147	0x3f190535	0.5977357
148	0xbb4a61f8	-0.0030881148
149	0xc0591ed6	-3.392507
150	0xbf89aa9d	-1.0755192
151	0xc01071bc	-2.2569418
152	0xc008059a	-2.125342
153	0xbf140a46	-0.57828176
154	0x3f015ae8	0.50529337
155	0xbfcf9f07	-1.6220406
156	0xbe657540	-0.22408009
157	0xbf658fec	-0.8967273
158	0x3df4a412	0.119453564
159	0xbf83728f	-1.0269336
160	0x3f87f656	1.0622051
161	0x3f5adeb9	0.854961
162	0xbfa2ecbf	-1.2728499
163	0xbeeee22e	-0.46656936
164	0xc0342b88	-2.815157
165	0x3e8686e3	0.26274785
166	0x3e810550	0.25199366
167	0xbbbf9be5	-0.0058474415
168	0x3f79da75	0.97598964
169	0x3f957612	1.1676657
170	0x3ebd8fe1	0.37023833
171	0x3f4ea309	0.8071752
172	0x3f6c2773	0.92247695
173	0xbefc5d8e	-0.49290127
174	0x3f3bf79b	0.7342469
175	0x3e6e48bf	0.23269938
176	0xc025671a	-2.5844178
177	0xbf90673d	-1.1281506
178	0xc00d7730	-2.2103996
179	0xc02f9db7	-2.7440012
180	0x3eeb91e3	0.4600974
181	0xbec4ff4a	-0.3847602
182	0xbeb63e31	-0.35594323
183	0xbf9d3abd	-1.228355
184	0xbf01191e	-0.5042895
185	0x3f405018	0.75122213
186	0x3fdb57f4	1.7136216
187	0xbe9a6f79	-0.30163172
188	0x3e17fce0	0.14842558
189	0xbd41a4dd	-0.047276367
190	0xbdb0b516	-0.086282894
191	0x3e488134	0.19580537
192	0xbe18f43d	-0.1493692
193	0xbeaa5fcd	-0.33276215
194	0x3d9e479b	0.077285014
195	0xbe610b5f	-0.21976994
196	0xbd9c2683	-0.07624533
197	0x3d022627	0.031774666
198	0xbee728d3	-0.45148334
199	0xbfa5a11e	-1.2939794
200	0xc0105f3c	-2.2558126
201	0x3ee4feb9	0.44725588
202	0x3e214b55	0.15751393
203	0xbe398157	-0.18115745
204	0x3f8cec68	1.1009645
205	0xbf4a7eae	-0.7909955
206	0xbfce17a0	-1.610096
207	0xbe16ff81	-0.14745905
208	0xbe4091c5	-0.18805607
209	0x3ea623a8	0.3244908
210	0xbecfa8c2	-0.4055844
211	0xbf6b3f59	-0.91893536
212	0xbe499051	-0.19683959
213	0xbf0b2d2c	-0.543658
214	0xbec15d10	-0.37766314
215	0xbc5e3da6	-0.013564503
216	0xbf77d156	-0.96803796
217	0xbf298e13	-0.66232413
218	0xc015f6b1	-2.3431818
219	0xbf52fba3	-0.8241522
220	0xbfd00047	-1.6250085
221	0xbe37876d	-0.17922755
222	0xbe53227d	-0.20618625
223	0x3f8ee05f	1.1162223
224	0x3f210a2b	0.6290614
225	0x3eeebe8e	0.46629757
226	0x3f34493c	0.70424247
227	0xbf7bab18	-0.98307943
228	0x3f371f7f	0.71532434
229	0x3f84db68	1.0379457
230	0xbfd71521	-1.6803323
231	0xbf6589dc	-0.8966348
232	0xbf2dce6c	-0.678931
233	0x3f124f64	0.5715239
234	0xbf408b6a	-0.7521273
235	0x3f9ce4e6	1.2257354
236	0x402c263a	2.6898332
237	0x3eab3f8c	0.3344692
238	0xbf5c55d7	-0.8606848
239	0xbf9fe23a	-1.2490914
240	0x3ee6694d	0.45002213
241	0x3dee953f	0.1164956
242	0xbf071023	-0.52759
243	0xbec5a667	-0.38603517
244	0x3f07b325	0.5300773
245	0x3fb35906	1.4011543
246	0xbe095487	-0.13411151
247	0x3d46315c	0.048386917
248	0xbea81eed	-0.32836094
249	0x3ea8c648	0.32963777
250	0xbf931f0d	-1.1493851
251	0xbce81c80	-0.028333902
252	0x3ea35082	0.3189736
253	0x3ea9f6ce	0.3319611
254	0x3fad6e03	1.3549198
255	0xbf008b45	-0.5021251

bias f4 [32]
0	0x3f2c5572	0.6731788
1	0xbf592086	-0.8481525
2	0xbdc9aae5	-0.09847049
3	0xbdb2482f	-0.08705174
4	0xbf36495c	-0.7120569
5	0x3ee381b5	0.44434896
6	0xbeacf1ff	-0.33778378
7	0xbf33add8	-0.7018714
8	0xbea2f262	-0.31825548
9	0xbf197d5b	-0.599569
10	0xbedb2932	-0.42804867
11	0xbdb415e4	-0.08793238
12	0x3d9b32b5	0.07578031
13	0xbf3eaa05	-0.7447818
14	0xbeba6832	-0.3640762
15	0xbf375dcc	-0.716275
16	0xbf42c549	-0.76082283
17	0xbf06acdd	-0.5260752
18	0x3dc63468	0.096779644
19	0xbf530cb2	-0.82441247
20	0xbf32c3f0	-0.69830227
21	0xbeeee47d	-0.46658698
22	0xbf3f709c	-0.74781203
23	0xbe38b0a3	-0.18036132
24	0xbf0b40c2	-0.5439569
25	0xbf1bb49f	-0.6082248
26	0xbfb70577	-1.4298543
27	0xbf01adba	-0.5065571
28	0xbf185566	-0.5950531
29	0xbf6c98f5	-0.92420894
30	0xbf90fbc2	-1.132683
31	0xbe8d94e5	-0.2765266

weight f4 [10, 1568]
0	0xbddd5c8c	-0.108086675
1	0xbe00120c	-0.12506884
2	0xbdcf219f	-0.101138346
3	0x3cce96af	0.025218336
4	0xbc9c4cf3	-0.019079661
5	0xbaa2440e	-0.0012379901
6	0xbdfe345b	-0.1241233
7	0x3cc5b4d4	0.024134077
8	0xbc9eb06a	-0.01937123
9	0xbd0ec0ab	-0.03485171
10	0x3de87fd7	0.113525085
11	0xbe29892f	-0.16556238
12	0x3e8da231	0.27662805
13	0xbe090069	-0.13379063
14	0xbc07cf43	-0.008289161
15	0xbe314b0c	-0.17313784
16	0x3f6f46c6	0.93467367
17	0x3f927158	1.144084
18	0x3fc172fa	1.5113213
19	0xbee6f19c	-0.45106208
20	0x3dbbedba	0.09176202
21	0x3daddc69	0.084893055
22	0xbe08e481	-0.13368417
23	0x3bfb9990	0.007678218
24	0x3e8a2968	0.26984715
25	0xbee39cd8	-0.444556
26	0xbeb00453	-0.343783
27	0xbe39866b	-0.18117683
28	0x3e69d57c	0.22835344
29	0x3d824cd1	0.06362308
30	0xbf958c05	-1.1683356
31	0xbf8e5996	-1.112109
32	0xbe2a26c1	-0.16616346
33	0xbed3acca	-0.41342765
34	0x3da6bf04	0.08141902
35	0xbe0656bf	-0.13119029
36	0x3e99b0df	0.30017754
37	0x3dc8c09a	0.09802361
38	0xbf2f1115	-0.6838544
39	0x3ef5732c	0.47939432
40	0x3df03e79	0.11730666
41	0xbda841b8	-0.0821566
42	0x3ce9bb59	0.028531717
43	0xbd43cd68	-0.047803313
44	0xbdca23f7	-0.09870141
45	0x3d5c64ed	0.053807188
46	0x3cd8e573	0.026476597
47	0x3c8e1881	0.017345669
48	0xbdd50b43	-0.104025386
49	0xbc899c08	-0.016798034
50	0x3f4036ac	0.7508342
51	0x3f107929	0.56434876
52	0x3e80157f	0.250164
53	0xbeeaee9b	-0.45885167
54	0x3d05f8f6	0.03270813
55	0xbeed1efb	-0.463127
56	0xbdad7baf	-0.084708564
57	0x3f0788b0	0.52942944
58	0x3e84adf1	0.25913957
59	0xbee81f15	-0.45336214
60	0x3e2ababe	0.16672799
61	0xbeee93bf	-0.46597096
62	0xbed14f66	-0.4088089
63	0xbf0832b7	-0.53202385
64	0x3f86877b	1.0510095
65	0x3d7c50eb	0.061600607
66	0xbecafe9a	-0.3964737
67	0xbf56c75d	-0.83897954
68	0x3f2f28cf	0.68421644
69	0xbed0c3cc	-0.4077438
70	0x3f844598	1.0333738
71	0xbe7236fa	-0.23653784
72	0xbfac8ee2	-1.3481104
73	0xbf1ef672	-0.62094796
74	0x3ef02e13	0.46910152
75	0x3fdb6eb6	1.7143161
76	0xbfb58013	-1.417971
77	0xbe5110a2	-0.20416501
78	0xc03e982e	-2.9780383
79	0xbff7d630	-1.936224
80	0xbf6c0330	-0.92192364
81	0xbdf3891e	-0.118913874
82	0x3e62505e	0.2210097
83	0xbe4364be	-0.19081399
84	0x3f43fdb5	0.76559
85	0xbeb7d985	-0.35908142
86	0xc01a2405	-2.4084485
87	0xbfee0bd4	-1.859736
88	0xbdb0e925	-0.08638219
89	0x3d6a9a26	0.057275914
90	0xbee6775a	-0.45012933
91	0x3f6e7d08	0.9315953
92	0x3f12a885	0.5728839
93	0x3efb6915	0.4910361
94	0x3f978b3e	1.1839368
95	0xbfbe323f	-1.4859084
96	0xbf81dd57	-1.0145673
97	0xbce2fa52	-0.027707253
98	0xbd4a21c8	-0.049348623
99	0xbd79fa5f	-0.061029788
100	0xbd2e710f	-0.04258829
101	0xbe62f4eb	-0.22163741
102	0xbd0737ae	-0.033012085
103	0xbd50312f	-0.050828155
104	0xbdb3927d	-0.08768175
105	0xbd953d92	-0.07287134
106	0x3f64067a	0.8907238
107	0xbc620c7f	-0.013796925
108	0xbe7f0457	-0.24904
109	0xbd8242f5	-0.06360427
110	0x3d927a18	0.07152194
111	0x3e937b67	0.28805086
112	0xbda9f4b3	-0.08298626
113	0x3ef483f1	0.47756913
114	0x3e38fbb7	0.18064772
115	0x3fa87197	1.3159665
116	0x3f635c21	0.8881245
117	0x3e03df33	0.12878112
118	0x3eab609f	0.33472154
119	0xbd941f1c	-0.07232496
120	0x3e8c8417	0.27444527
121	0xbebd7d4d	-0.3700966
122	0x3fe6a2e8	1.8018465
123	0xbfef0533	-1.8673462
124	0xbff13115	-1.8843104
125	0x3fbdb3ef	1.4820536
126	0xbe1d6757	-0.15371452
127	0x3f173a79	0.590736
128	0xbf70a455	-0.9400075
129	0xbfcf638d	-1.6202255
130	0xc00e4b05	-2.2233288
131	0x3dd28441	0.10279132
132	0x3e4d4365	0.2004524
133	0xbe208175	-0.15674384
134	0xbf83f92c	-1.0310416
135	0x3e121f3a	0.14269724
136	0x3e291413	0.16511564
137	0xbf09fb2c	-0.5389888
138	0x3e7e18bf	0.24814127
139	0xbf10fe95	-0.5663846
140	0xbdc504f8	-0.09620088
141	0x3b8cf69b	0.0043018586
142	0xbc5772a7	-0.013149894
143	0x3e2f72fa	0.17133704
144	0xbcc007b7	-0.023441179
145	0xbbbac436	-0.0056996597
146	0xbc92b083	-0.017906433
147	0xbda29395	-0.07938305
148	0xbe609e3b	-0.2193536
149	0xbf66f23e	-0.9021338
150	0xbfab7ce7	-1.3397492
151	0xbf39923c	-0.7248876
152	0xbf24766d	-0.64243203
153	0xbdaebd42	-0.08532192
154	0x3e2401a8	0.16016257
155	0xbd092ddf	-0.03349101
156	0x3f6271de	0.88455
157	0x3f2bd129	0.6711603
158	0xbe361c0a	-0.17784134
159	0x3ec02fe3	0.37536535
160	0xbe11b856	-0.14230475
161	0x3e5eaa21	0.21744587
162	0x3f4d9470	0.8030462
163	0x3f17c313	0.59282035
164	0x3f80b2a1	1.0054513
165	0xc005b4ae	-2.0891528
166	0xc00c2dfd	-2.190307
167	0xbf2ee37e	-0.68315876
168	0x3f314a9e	0.6925448
169	0x3f84e4ba	1.0382302
170	0x3f290f0b	0.6603858
171	0xc01190b3	-2.2744567
172	0xbb24b95a	-0.0025134892
173	0x3f7167bf	0.9429893
174	0xbf9632c4	-1.1734242
175	0x3f1a77b1	0.60338885
176	0x3f7f0733	0.9962036
177	0xbeb06d62	-0.34458452
178	0xbe39ab91	-0.18131854
179	0x3fafcadb	1.3733782
180	0x3f026e42	0.5094949
181	0xbef200ad	-0.4726614
182	0xbc46f2c1	-0.012142838
183	0xc01059fd	-2.2554924
184	0xc05f2060	-3.486351
185	0xbf6eaf1a	-0.93235934
186	0xbf80ab25	-1.0052229
187	0x3eaf6496	0.34256428
188	0x3e67a72b	0.22622363
189	0xbec1ed2f	-0.3787627
190	0xbf24896c	-0.6427219
191	0xbf797f9e	-0.97460353
192	0xbf7e19d8	-0.99258184
193	0xbf952a74	-1.1653581
194	0xbeef5286	-0.46742648
195	0xbfab44a9	-1.3380328
196	0xbd173c42	-0.0369227
197	0x3e863ecd	0.26219788
198	0xbeac0c26	-0.3360302
199	0x3f0d215d	0.55129033
200	0x3e8536d6	0.260184
201	0x3e0a14dc	0.1348452
202	0xbec12dc2	-0.37730223
203	0xbdd7cdc0	-0.105372906
204	0xbe8989b5	-0.26862875
205	0x3eb95083	0.36194238
206	0x3f7fe6f9	0.9996181
207	0xbf916c3f	-1.1361159
208	0x3efa00fe	0.48828882
209	0x3da6f383	0.08151915
210	0xbeea303a	-0.4573992
211	0x3d8bee45	0.06832556
212	0xbde793a8	-0.1130746
213	0xbfe0b992	-1.7556632
214	0xc0162ac9	-2.3463614
215	0xbf775e7f	-0.96628565
216	0x3f0db76c	0.55358005
217	0xbfa33a1c	-1.2752109
218	0x3ed6039c	0.4179963
219	0x3f973619	1.1813384
220	0x3fca6016	1.5810573
221	0xc04e20d3	-3.2207534
222	0xbf85846c	-1.0431037
223	0xbf470037	-0.777347
224	0xbe42af58	-0.19012201
225	0x3f6503bd	0.8945883
226	0x3ee597f4	0.44842494
227	0xbf8385ca	-1.0275204
228	0xbed4003e	-0.41406435
229	0xbec4ac07	-0.38412496
230	0xbf8efe96	-1.1171443
231	0xbef5db73	-0.4801899
232	0x3f9e846b	1.2384161
233	0x3f73f153	0.95290107
234	0xbe9deb9c	-0.30843818
235	0x3f8184ba	1.011863
236	0x3e317495	0.17329629
237	0x3da507ec	0.080581516
238	0x3e8a7e3e	0.2704944
239	0xbecad8f7	-0.39618656
240	0xbf7f5d0b	-0.9975135
241	0xbf58dc4d	-0.8471115
242	0xbf71a704	-0.9439547
243	0x3d9db78c	0.077010244
244	0xbc84550b	-0.016153833
245	0xb984ef64	-0.00025355362
246	0xbdf7600b	-0.120788656
247	0x3f1af7d5	0.6053441
248	0xbe1ac279	-0.15113248
249	0xbe89f11b	-0.2694176
250	0xbe549a7a	-0.20762053
251	0xbe5f934d	-0.21833535
252	0xbcd266ca	-0.02568378
253	0xbeb60d38	-0.3555696
254	0x3df9300c	0.12167367
255	0x3ef40988	0.47663522

bias f4 [10]
0	0x3e9ef007	0.310425
1	0x3fab6af4	1.3392015
2	0x3d93913f	0.07205438
3	0xbf0aa0f6	-0.54151857
4	0x3e5f5e2b	0.21813266
5	0x3c86331c	0.016381793
6	0xbe9c3460	-0.3050871
7	0x3eaa7a22	0.33296305
8	0xbe648e40	-0.22319889
9	0xbf3668bc	-0.7125356
